…
yers/convolutional/base_conv.py:107: UserWarning: Do not pass an `input_shape`/`input_dim` argument to a layer. When using Sequential models, prefer using an `Input(shape)` object as the first layer in the model instead.\n  super().__init__(activity_regularizer=activity_regularizer, **kwargs)\n\n\nModel: \"sequential_2\"\n\n\n\n┏━━━━━━━━━━━━━━━━━━━━━━━━━━━━━━━━━┳━━━━━━━━━━━━━━━━━━━━━━━━┳━━━━━━━━━━━━━━━┓\n┃ Layer (type)                    ┃ Output Shape           ┃       Param # ┃\n┡━━━━━━━━━━━━━━━━━━━━━━━━━━━━━━━━━╇━━━━━━━━━━━━━━━━━━━━━━━━╇━━━━━━━━━━━━━━━┩\n│ conv2d (Conv2D)                 │ (None, 148, 148, 64)   │         1,792 │\n├─────────────────────────────────┼────────────────────────┼───────────────┤\n│ max_pooling2d (MaxPooling2D)    │ (None, 74, 74, 64)     │             0 │\n├─────────────────────────────────┼────────────────────────┼───────────────┤\n│ conv2d_1 (Conv2D)               │ (None, 72, 72, 64)     │        36,928 │\n├─────────────────────────────────┼────────────────────────┼───────────────┤\n│ max_pooling2d_1 (MaxPooling2D)  │ (None, 36, 36, 64)     │             0 │\n├─────────────────────────────────┼────────────────────────┼───────────────┤\n│ conv2d_2 (Conv2D)               │ (None, 34, 34, 128)    │        73,856 │\n├─────────────────────────────────┼────────────────────────┼───────────────┤\n│ max_pooling2d_2 (MaxPooling2D)  │ (None, 17, 17, 128)    │             0 │\n├─────────────────────────────────┼────────────────────────┼───────────────┤\n│ conv2d_3 (Conv2D)               │ (None, 15, 15, 128)    │       147,584 │\n├─────────────────────────────────┼────────────────────────┼───────────────┤\n│ max_pooling2d_3 (MaxPooling2D)  │ (None, 7, 7, 128)      │             0 │\n├─────────────────────────────────┼────────────────────────┼───────────────┤\n│ flatten_2 (Flatten)             │ (None, 6272)           │             0 │\n├─────────────────────────────────┼────────────────────────┼───────────────┤\n│ dropout (Dropout)               │ (None, 6272)           │             0 │\n├─────────────────────────────────┼────────────────────────┼───────────────┤\n│ dense_4 (Dense)                 │ (None, 512)            │     3,211,776 │\n├─────────────────────────────────┼────────────────────────┼───────────────┤\n│ dense_5 (Dense)                 │ (None, 3)              │         1,539 │\n└─────────────────────────────────┴────────────────────────┴───────────────┘\n\n\n\n Total params: 3,473,475 (13.25 MB)\n\n\n\n Trainable params: 3,473,475 (13.25 MB)\n\n\n\n Non-trainable params: 0 (0.00 B)\n\n\n\n\nhistoria2 = modelo2.fit(gen_train, epochs=15, batch_size = 32, validation_data=gen_val, verbose = 1)\n\nmodelo2.save(\"modelo2.h5\")\n\nEpoch 1/15\n79/79 ━━━━━━━━━━━━━━━━━━━━ 18s 
…
